2022-05-27 18:36:53
Loading dataset...
Loading model...
MLP2(
  (title_embedding): Embedding(63, 10)
  (loss_fn): MSELoss()
  (model): Sequential(
    (0): Linear(in_features=14, out_features=32, bias=True)
    (1): LeakyReLU(negative_slope=0.2)
    (2): BatchNorm1d(32, eps=1e-05, momentum=0.1, affine=True, track_running_stats=True)
    (3): Dropout(p=0.2, inplace=False)
    (4): SkipConnectionBlock(
      (skip_block): Sequential(
        (0): Linear(in_features=32, out_features=32, bias=True)
        (1): LeakyReLU(negative_slope=0.2)
        (2): BatchNorm1d(32, eps=1e-05, momentum=0.1, affine=True, track_running_stats=True)
        (3): Dropout(p=0.2, inplace=False)
      )
    )
    (5): SkipConnectionBlock(
      (skip_block): Sequential(
        (0): Linear(in_features=32, out_features=32, bias=True)
        (1): LeakyReLU(negative_slope=0.2)
        (2): BatchNorm1d(32, eps=1e-05, momentum=0.1, affine=True, track_running_stats=True)
        (3): Dropout(p=0.2, inplace=False)
      )
    )
    (6): SkipConnectionBlock(
      (skip_block): Sequential(
        (0): Linear(in_features=32, out_features=32, bias=True)
        (1): LeakyReLU(negative_slope=0.2)
        (2): BatchNorm1d(32, eps=1e-05, momentum=0.1, affine=True, track_running_stats=True)
        (3): Dropout(p=0.2, inplace=False)
      )
    )
    (7): SkipConnectionBlock(
      (skip_block): Sequential(
        (0): Linear(in_features=32, out_features=32, bias=True)
        (1): LeakyReLU(negative_slope=0.2)
        (2): BatchNorm1d(32, eps=1e-05, momentum=0.1, affine=True, track_running_stats=True)
        (3): Dropout(p=0.2, inplace=False)
      )
    )
    (8): Linear(in_features=32, out_features=1, bias=True)
  )
)
Epoch=1, loss=1.023870, r2=0.023679
Epoch=2, loss=0.841986, r2=0.199813
Epoch=3, loss=0.790588, r2=0.253544
Epoch=4, loss=0.700674, r2=0.332999
Epoch=5, loss=0.661923, r2=0.372649
Epoch=6, loss=0.596341, r2=0.438052
Epoch=7, loss=0.567865, r2=0.462964
Epoch=8, loss=0.594939, r2=0.450525
Epoch=9, loss=0.583326, r2=0.455382
Epoch=10, loss=0.558239, r2=0.480633
…
