2022-05-27 14:04:21
Loading dataset...
Loading model...
MLP2(
  (title_embedding): Embedding(63, 10)
  (loss_fn): MSELoss()
  (model): Sequential(
    (0): Linear(in_features=14, out_features=32, bias=True)
    (1): LeakyReLU(negative_slope=0.2)
    (2): BatchNorm1d(32, eps=1e-05, momentum=0.1, affine=True, track_running_stats=True)
    (3): Dropout(p=0.2, inplace=False)
    (4): SkipConnectionBlock(
      (skip_block): Sequential(
        (0): Linear(in_features=32, out_features=32, bias=True)
        (1): LeakyReLU(negative_slope=0.2)
        (2): BatchNorm1d(32, eps=1e-05, momentum=0.1, affine=True, track_running_stats=True)
        (3): Dropout(p=0.2, inplace=False)
      )
    )
    (5): SkipConnectionBlock(
      (skip_block): Sequential(
        (0): Linear(in_features=32, out_features=32, bias=True)
        (1): LeakyReLU(negative_slope=0.2)
        (2): BatchNorm1d(32, eps=1e-05, momentum=0.1, affine=True, track_running_stats=True)
        (3): Dropout(p=0.2, inplace=False)
      )
    )
    (6): SkipConnectionBlock(
      (skip_block): Sequential(
        (0): Linear(in_features=32, out_features=32, bias=True)
        (1): LeakyReLU(negative_slope=0.2)
        (2): BatchNorm1d(32, eps=1e-05, momentum=0.1, affine=True, track_running_stats=True)
        (3): Dropout(p=0.2, inplace=False)
      )
    )
    (7): SkipConnectionBlock(
      (skip_block): Sequential(
        (0): Linear(in_features=32, out_features=32, bias=True)
        (1): LeakyReLU(negative_slope=0.2)
        (2): BatchNorm1d(32, eps=1e-05, momentum=0.1, affine=True, track_running_stats=True)
        (3): Dropout(p=0.2, inplace=False)
      )
    )
    (8): Linear(in_features=32, out_features=1, bias=True)
    (9): Softplus(beta=1, threshold=20)
  )
)
Epoch=1, loss=1.078341
Epoch=2, loss=0.918605
Epoch=3, loss=0.849706
Epoch=4, loss=0.761597
Epoch=5, loss=0.742358
Epoch=6, loss=0.672960
Epoch=7, loss=0.664575
Epoch=8, loss=0.683956
Epoch=9, loss=0.679193
Epoch=10, loss=0.651473
Epoch=11, loss=0.616083
Epoch=12, loss=0.623628
Epoch=13, loss=0.607738
Epoch=14, loss=0.643856
…
