2022-05-27 19:00:51
Loading dataset...
Loading model...
MLP2(
  (title_embedding): Embedding(63, 32)
  (loss_fn): MSELoss()
  (model): Sequential(
    (0): Linear(in_features=36, out_features=64, bias=True)
    (1): LeakyReLU(negative_slope=0.2)
    (2): BatchNorm1d(64, eps=1e-05, momentum=0.1, affine=True, track_running_stats=True)
    (3): Dropout(p=0.2, inplace=False)
    (4): SkipConnectionBlock(
      (skip_block): Sequential(
        (0): Linear(in_features=64, out_features=64, bias=True)
        (1): LeakyReLU(negative_slope=0.2)
        (2): BatchNorm1d(64, eps=1e-05, momentum=0.1, affine=True, track_running_stats=True)
        (3): Dropout(p=0.2, inplace=False)
      )
    )
    (5): SkipConnectionBlock(
      (skip_block): Sequential(
        (0): Linear(in_features=64, out_features=64, bias=True)
        (1): LeakyReLU(negative_slope=0.2)
        (2): BatchNorm1d(64, eps=1e-05, momentum=0.1, affine=True, track_running_stats=True)
        (3): Dropout(p=0.2, inplace=False)
      )
    )
    (6): SkipConnectionBlock(
      (skip_block): Sequential(
        (0): Linear(in_features=64, out_features=64, bias=True)
        (1): LeakyReLU(negative_slope=0.2)
        (2): BatchNorm1d(64, eps=1e-05, momentum=0.1, affine=True, track_running_stats=True)
        (3): Dropout(p=0.2, inplace=False)
      )
    )
    (7): SkipConnectionBlock(
      (skip_block): Sequential(
        (0): Linear(in_features=64, out_features=64, bias=True)
        (1): LeakyReLU(negative_slope=0.2)
        (2): BatchNorm1d(64, eps=1e-05, momentum=0.1, affine=True, track_running_stats=True)
        (3): Dropout(p=0.2, inplace=False)
      )
    )
    (8): SkipConnectionBlock(
      (skip_block): Sequential(
        (0): Linear(in_features=64, out_features=64, bias=True)
        (1): LeakyReLU(negative_slope=0.2)
        (2): BatchNorm1d(64, eps=1e-05, momentum=0.1, affine=True, track_running_stats=True)
        (3): Dropout(p=0.2, inplace=False)
      )
    )
    (9): SkipConnectionBlock(
      (skip_block): Sequential(
        (0): Linear(in_features=64, out_features=64, bias=True)
        (1): LeakyReLU(negative_slope=0.2)
        (2): BatchNorm1d(64, eps=1e-05, momentum=0.1, affine=True, track_running_stats=True)
        (3): Dropout(p=0.2, inplace=False)
      )
    )
    (10): SkipConnectionBlock(
      (skip_block): Sequential(
        (0): Linear(in_features=64, out_features=64, bias=True)
        (1): LeakyReLU(negative_slope=0.2)
        (2): BatchNorm1d(64, eps=1e-05, momentum=0.1, affine=True, track_running_stats=True)
        (3): Dropout(p=0.2, inplace=False)
      )
    )
    (11): SkipConnectionBlock(
      (skip_block): Sequential(
        (0): Linear(in_features=64, out_features=64, bias=True)
        (1): LeakyReLU(negative_slope=0.2)
        (2): BatchNorm1d(64, eps=1e-05, momentum=0.1, affine=True, track_running_stats=True)
        (3): Dropout(p=0.2, inplace=False)
      )
    )
    (12): SkipConnectionBlock(
      (skip_block): Sequential(
        (0): Linear(in_features=64, out_features=64, bias=True)
        (1): LeakyReLU(negative_slope=0.2)
        (2): BatchNorm1d(64, eps=1e-05, momentum=0.1, affine=True, track_running_stats=True)
        (3): Dropout(p=0.2, inplace=False)
      )
    )
    (13): SkipConnectionBlock(
      (skip_block): Sequential(
        (0): Linear(in_features=64, out_features=64, bias=True)
        (1): LeakyReLU(negative_slope=0.2)
        (2): BatchNorm1d(64, eps=1e-05, momentum=0.1, affine=True, track_running_stats=True)
        (3): Dropout(p=0.2, inplace=False)
      )
    )
    (14): SkipConnectionBlock(
      (skip_block): Sequential(
        (0): Linear(in_features=64, out_features=64, bias=True)
        (1): LeakyReLU(negative_slope=0.2)
        (2): BatchNorm1d(64, eps=1e-05, momentum=0.1, affine=True, track_running_stats=True)
        (3): Dropout(p=0.2, inplace=False)
      )
    )
    (15): SkipConnectionBlock(
      (skip_block): Sequential(
        (0): Linear(in_features=64, out_features=64, bias=True)
        (1): LeakyReLU(negative_slope=0.2)
        (2): BatchNorm1d(64, eps=1e-05, momentum=0.1, affine=True, track_running_stats=True)
        (3): Dropout(p=0.2, inplace=False)
      )
    )
    (16): SkipConnectionBlock(
      (skip_block): Sequential(
        (0): Linear(in_features=64, out_features=64, bias=True)
        (1): LeakyReLU(negative_slope=0.2)
        (2): BatchNorm1d(64, eps=1e-05, momentum=0.1, affine=True, track_running_stats=True)
        (3): Dropout(p=0.2, inplace=False)
      )
    )
    (17): SkipConnectionBlock(
      (skip_block): Sequential(
        (0): Linear(in_features=64, out_features=64, bias=True)
        (1): LeakyReLU(negative_slope=0.2)
        (2): BatchNorm1d(64, eps=1e-05, momentum=0.1, affine=True, track_running_stats=True)
        (3): Dropout(p=0.2, inplace=False)
      )
    )
    (18): SkipConnectionBlock(
      (skip_block): Sequential(
        (0): Linear(in_features=64, out_features=64, bias=True)
        (1): LeakyReLU(negative_slope=0.2)
        (2): BatchNorm1d(64, eps=1e-05, momentum=0.1, affine=True, track_running_stats=True)
        (3): Dropout(p=0.2, inplace=False)
      )
    )
    (19): SkipConnectionBlock(
      (skip_block): Sequential(
        (0): Linear(in_features=64, out_features=64, bias=True)
        (1): LeakyReLU(negative_slope=0.2)
        (2): BatchNorm1d(64, eps=1e-05, momentum=0.1, affine=True, track_running_stats=True)
        (3): Dropout(p=0.2, inplace=False)
      )
    )
    (20): SkipConnectionBlock(
      (skip_block): Sequential(
        (0): Linear(in_features=64, out_features=64, bias=True)
        (1): LeakyReLU(negative_slope=0.2)
        (2): BatchNorm1d(64, eps=1e-05, momentum=0.1, affine=True, track_running_stats=True)
        (3): Dropout(p=0.2, inplace=False)
      )
    )
    (21): SkipConnectionBlock(
      (skip_block): Sequential(
        (0): Linear(in_features=64, out_features=64, bias=True)
        (1): LeakyReLU(negative_slope=0.2)
        (2): BatchNorm1d(64, eps=1e-05, momentum=0.1, affine=True, track_running_stats=True)
        (3): Dropout(p=0.2, inplace=False)
      )
    )
    (22): SkipConnectionBlock(
      (skip_block): Sequential(
        (0): Linear(in_features=64, out_features=64, bias=True)
        (1): LeakyReLU(negative_slope=0.2)
        (2): BatchNorm1d(64, eps=1e-05, momentum=0.1, affine=True, track_running_stats=True)
        (3): Dropout(p=0.2, inplace=False)
      )
    )
    (23): SkipConnectionBlock(
      (skip_block): Sequential(
        (0): Linear(in_features=64, out_features=64, bias=True)
        (1): LeakyReLU(negative_slope=0.2)
        (2): BatchNorm1d(64, eps=1e-05, momentum=0.1, affine=True, track_running_stats=True)
        (3): Dropout(p=0.2, inplace=False)
      )
    )
    (24): SkipConnectionBlock(
      (skip_block): Sequential(
        (0): Linear(in_features=64, out_features=64, bias=True)
        (1): LeakyReLU(negative_slope=0.2)
        (2): BatchNorm1d(64, eps=1e-05, momentum=0.1, affine=True, track_running_stats=True)
        (3): Dropout(p=0.2, inplace=False)
      )
    )
    (25): SkipConnectionBlock(
      (skip_block): Sequential(
        (0): Linear(in_features=64, out_features=64, bias=True)
        (1): LeakyReLU(negative_slope=0.2)
        (2): BatchNorm1d(64, eps=1e-05, momentum=0.1, affine=True, track_running_stats=True)
        (3): Dropout(p=0.2, inplace=False)
      )
    )
    (26): SkipConnectionBlock(
      (skip_block): Sequential(
        (0): Linear(in_features=64, out_features=64, bias=True)
        (1): LeakyReLU(negative_slope=0.2)
        (2): BatchNorm1d(64, eps=1e-05, momentum=0.1, affine=True, track_running_stats=True)
        (3): Dropout(p=0.2, inplace=False)
      )
    )
    (27): SkipConnectionBlock(
      (skip_block): Sequential(
        (0): Linear(in_features=64, out_features=64, bias=True)
        (1): LeakyReLU(negative_slope=0.2)
        (2): BatchNorm1d(64, eps=1e-05, momentum=0.1, affine=True, track_running_stats=True)
        (3): Dropout(p=0.2, inplace=False)
      )
    )
    (28): SkipConnectionBlock(
      (skip_block): Sequential(
        (0): Linear(in_features=64, out_features=64, bias=True)
        (1): LeakyReLU(negative_slope=0.2)
        (2): BatchNorm1d(64, eps=1e-05, momentum=0.1, affine=True, track_running_stats=True)
        (3): Dropout(p=0.2, inplace=False)
      )
    )
    (29): SkipConnectionBlock(
      (skip_block): Sequential(
        (0): Linear(in_features=64, out_features=64, bias=True)
        (1): LeakyReLU(negative_slope=0.2)
        (2): BatchNorm1d(64, eps=1e-05, momentum=0.1, affine=True, track_running_stats=True)
        (3): Dropout(p=0.2, inplace=False)
      )
    )
    (30): SkipConnectionBlock(
      (skip_block): Sequential(
        (0): Linear(in_features=64, out_features=64, bias=True)
        (1): LeakyReLU(negative_slope=0.2)
        (2): BatchNorm1d(64, eps=1e-05, momentum=0.1, affine=True, track_running_stats=True)
        (3): Dropout(p=0.2, inplace=False)
      )
    )
    (31): SkipConnectionBlock(
      (skip_block): Sequential(
        (0): Linear(in_features=64, out_features=64, bias=True)
        (1): LeakyReLU(negative_slope=0.2)
        (2): BatchNorm1d(64, eps=1e-05, momentum=0.1, affine=True, track_running_stats=True)
        (3): Dropout(p=0.2, inplace=False)
      )
    )
    (32): SkipConnectionBlock(
      (skip_block): Sequential(
        (0): Linear(in_features=64, out_features=64, bias=True)
        (1): LeakyReLU(negative_slope=0.2)
        (2): BatchNorm1d(64, eps=1e-05, momentum=0.1, affine=True, track_running_stats=True)
        (3): Dropout(p=0.2, inplace=False)
      )
    )
    (33): SkipConnectionBlock(
      (skip_block): Sequential(
        (0): Linear(in_features=64, out_features=64, bias=True)
        (1): LeakyReLU(negative_slope=0.2)
        (2): BatchNorm1d(64, eps=1e-05, momentum=0.1, affine=True, track_running_stats=True)
        (3): Dropout(p=0.2, inplace=False)
      )
    )
    (34): SkipConnectionBlock(
      (skip_block): Sequential(
        (0): Linear(in_features=64, out_features=64, bias=True)
        (1): LeakyReLU(negative_slope=0.2)
        (2): BatchNorm1d(64, eps=1e-05, momentum=0.1, affine=True, track_running_stats=True)
        (3): Dropout(p=0.2, inplace=False)
      )
    )
    (35): SkipConnectionBlock(
      (skip_block): Sequential(
        (0): Linear(in_features=64, out_features=64, bias=True)
        (1): LeakyReLU(negative_slope=0.2)
        (2): BatchNorm1d(64, eps=1e-05, momentum=0.1, affine=True, track_running_stats=True)
        (3): Dropout(p=0.2, inplace=False)
      )
    )
    (36): Linear(in_features=64, out_features=1, bias=True)
  )
)
Epoch=1, loss=1.271567, r2=-0.207882
Epoch=2, loss=0.958798, r2=0.078088
Epoch=3, loss=0.839682, r2=0.194153
Epoch=4, loss=0.813537, r2=0.220302
Epoch=5, loss=0.785633, r2=0.249956
Epoch=6, loss=0.685582, r2=0.349018
Epoch=7, loss=0.679775, r2=0.357737
Epoch=8, loss=0.651434, r2=0.381117
Epoch=9, loss=0.630835, r2=0.402055
Epoch=10, loss=0.626903, r2=0.405351
…
