2022-05-27 18:40:18
Loading dataset...
Loading model...
MLP2(
  (title_embedding): Embedding(63, 32)
  (loss_fn): MSELoss()
  (model): Sequential(
    (0): Linear(in_features=36, out_features=64, bias=True)
    (1): LeakyReLU(negative_slope=0.2)
    (2): BatchNorm1d(64, eps=1e-05, momentum=0.1, affine=True, track_running_stats=True)
    (3): Dropout(p=0.2, inplace=False)
    (4): SkipConnectionBlock(
      (skip_block): Sequential(
        (0): Linear(in_features=64, out_features=64, bias=True)
        (1): LeakyReLU(negative_slope=0.2)
        (2): BatchNorm1d(64, eps=1e-05, momentum=0.1, affine=True, track_running_stats=True)
        (3): Dropout(p=0.2, inplace=False)
      )
    )
    (5): SkipConnectionBlock(
      (skip_block): Sequential(
        (0): Linear(in_features=64, out_features=64, bias=True)
        (1): LeakyReLU(negative_slope=0.2)
        (2): BatchNorm1d(64, eps=1e-05, momentum=0.1, affine=True, track_running_stats=True)
        (3): Dropout(p=0.2, inplace=False)
      )
    )
    (6): SkipConnectionBlock(
      (skip_block): Sequential(
        (0): Linear(in_features=64, out_features=64, bias=True)
        (1): LeakyReLU(negative_slope=0.2)
        (2): BatchNorm1d(64, eps=1e-05, momentum=0.1, affine=True, track_running_stats=True)
        (3): Dropout(p=0.2, inplace=False)
      )
    )
    (7): SkipConnectionBlock(
      (skip_block): Sequential(
        (0): Linear(in_features=64, out_features=64, bias=True)
        (1): LeakyReLU(negative_slope=0.2)
        (2): BatchNorm1d(64, eps=1e-05, momentum=0.1, affine=True, track_running_stats=True)
        (3): Dropout(p=0.2, inplace=False)
      )
    )
    (8): SkipConnectionBlock(
      (skip_block): Sequential(
        (0): Linear(in_features=64, out_features=64, bias=True)
        (1): LeakyReLU(negative_slope=0.2)
        (2): BatchNorm1d(64, eps=1e-05, momentum=0.1, affine=True, track_running_stats=True)
        (3): Dropout(p=0.2, inplace=False)
      )
    )
    (9): SkipConnectionBlock(
      (skip_block): Sequential(
        (0): Linear(in_features=64, out_features=64, bias=True)
        (1): LeakyReLU(negative_slope=0.2)
        (2): BatchNorm1d(64, eps=1e-05, momentum=0.1, affine=True, track_running_stats=True)
        (3): Dropout(p=0.2, inplace=False)
      )
    )
    (10): SkipConnectionBlock(
      (skip_block): Sequential(
        (0): Linear(in_features=64, out_features=64, bias=True)
        (1): LeakyReLU(negative_slope=0.2)
        (2): BatchNorm1d(64, eps=1e-05, momentum=0.1, affine=True, track_running_stats=True)
        (3): Dropout(p=0.2, inplace=False)
      )
    )
    (11): SkipConnectionBlock(
      (skip_block): Sequential(
        (0): Linear(in_features=64, out_features=64, bias=True)
        (1): LeakyReLU(negative_slope=0.2)
        (2): BatchNorm1d(64, eps=1e-05, momentum=0.1, affine=True, track_running_stats=True)
        (3): Dropout(p=0.2, inplace=False)
      )
    )
    (12): SkipConnectionBlock(
      (skip_block): Sequential(
        (0): Linear(in_features=64, out_features=64, bias=True)
        (1): LeakyReLU(negative_slope=0.2)
        (2): BatchNorm1d(64, eps=1e-05, momentum=0.1, affine=True, track_running_stats=True)
        (3): Dropout(p=0.2, inplace=False)
      )
    )
    (13): SkipConnectionBlock(
      (skip_block): Sequential(
        (0): Linear(in_features=64, out_features=64, bias=True)
        (1): LeakyReLU(negative_slope=0.2)
        (2): BatchNorm1d(64, eps=1e-05, momentum=0.1, affine=True, track_running_stats=True)
        (3): Dropout(p=0.2, inplace=False)
      )
    )
    (14): SkipConnectionBlock(
      (skip_block): Sequential(
        (0): Linear(in_features=64, out_features=64, bias=True)
        (1): LeakyReLU(negative_slope=0.2)
        (2): BatchNorm1d(64, eps=1e-05, momentum=0.1, affine=True, track_running_stats=True)
        (3): Dropout(p=0.2, inplace=False)
      )
    )
    (15): SkipConnectionBlock(
      (skip_block): Sequential(
        (0): Linear(in_features=64, out_features=64, bias=True)
        (1): LeakyReLU(negative_slope=0.2)
        (2): BatchNorm1d(64, eps=1e-05, momentum=0.1, affine=True, track_running_stats=True)
        (3): Dropout(p=0.2, inplace=False)
      )
    )
    (16): SkipConnectionBlock(
      (skip_block): Sequential(
        (0): Linear(in_features=64, out_features=64, bias=True)
        (1): LeakyReLU(negative_slope=0.2)
        (2): BatchNorm1d(64, eps=1e-05, momentum=0.1, affine=True, track_running_stats=True)
        (3): Dropout(p=0.2, inplace=False)
      )
    )
    (17): SkipConnectionBlock(
      (skip_block): Sequential(
        (0): Linear(in_features=64, out_features=64, bias=True)
        (1): LeakyReLU(negative_slope=0.2)
        (2): BatchNorm1d(64, eps=1e-05, momentum=0.1, affine=True, track_running_stats=True)
        (3): Dropout(p=0.2, inplace=False)
      )
    )
    (18): SkipConnectionBlock(
      (skip_block): Sequential(
        (0): Linear(in_features=64, out_features=64, bias=True)
        (1): LeakyReLU(negative_slope=0.2)
        (2): BatchNorm1d(64, eps=1e-05, momentum=0.1, affine=True, track_running_stats=True)
        (3): Dropout(p=0.2, inplace=False)
      )
    )
    (19): SkipConnectionBlock(
      (skip_block): Sequential(
        (0): Linear(in_features=64, out_features=64, bias=True)
        (1): LeakyReLU(negative_slope=0.2)
        (2): BatchNorm1d(64, eps=1e-05, momentum=0.1, affine=True, track_running_stats=True)
        (3): Dropout(p=0.2, inplace=False)
      )
    )
    (20): SkipConnectionBlock(
      (skip_block): Sequential(
        (0): Linear(in_features=64, out_features=64, bias=True)
        (1): LeakyReLU(negative_slope=0.2)
        (2): BatchNorm1d(64, eps=1e-05, momentum=0.1, affine=True, track_running_stats=True)
        (3): Dropout(p=0.2, inplace=False)
      )
    )
    (21): SkipConnectionBlock(
      (skip_block): Sequential(
        (0): Linear(in_features=64, out_features=64, bias=True)
        (1): LeakyReLU(negative_slope=0.2)
        (2): BatchNorm1d(64, eps=1e-05, momentum=0.1, affine=True, track_running_stats=True)
        (3): Dropout(p=0.2, inplace=False)
      )
    )
    (22): SkipConnectionBlock(
      (skip_block): Sequential(
        (0): Linear(in_features=64, out_features=64, bias=True)
        (1): LeakyReLU(negative_slope=0.2)
        (2): BatchNorm1d(64, eps=1e-05, momentum=0.1, affine=True, track_running_stats=True)
        (3): Dropout(p=0.2, inplace=False)
      )
    )
    (23): SkipConnectionBlock(
      (skip_block): Sequential(
        (0): Linear(in_features=64, out_features=64, bias=True)
        (1): LeakyReLU(negative_slope=0.2)
        (2): BatchNorm1d(64, eps=1e-05, momentum=0.1, affine=True, track_running_stats=True)
        (3): Dropout(p=0.2, inplace=False)
      )
    )
    (24): SkipConnectionBlock(
      (skip_block): Sequential(
        (0): Linear(in_features=64, out_features=64, bias=True)
        (1): LeakyReLU(negative_slope=0.2)
        (2): BatchNorm1d(64, eps=1e-05, momentum=0.1, affine=True, track_running_stats=True)
        (3): Dropout(p=0.2, inplace=False)
      )
    )
    (25): SkipConnectionBlock(
      (skip_block): Sequential(
        (0): Linear(in_features=64, out_features=64, bias=True)
        (1): LeakyReLU(negative_slope=0.2)
        (2): BatchNorm1d(64, eps=1e-05, momentum=0.1, affine=True, track_running_stats=True)
        (3): Dropout(p=0.2, inplace=False)
      )
    )
    (26): SkipConnectionBlock(
      (skip_block): Sequential(
        (0): Linear(in_features=64, out_features=64, bias=True)
        (1): LeakyReLU(negative_slope=0.2)
        (2): BatchNorm1d(64, eps=1e-05, momentum=0.1, affine=True, track_running_stats=True)
        (3): Dropout(p=0.2, inplace=False)
      )
    )
    (27): SkipConnectionBlock(
      (skip_block): Sequential(
        (0): Linear(in_features=64, out_features=64, bias=True)
        (1): LeakyReLU(negative_slope=0.2)
        (2): BatchNorm1d(64, eps=1e-05, momentum=0.1, affine=True, track_running_stats=True)
        (3): Dropout(p=0.2, inplace=False)
      )
    )
    (28): SkipConnectionBlock(
      (skip_block): Sequential(
        (0): Linear(in_features=64, out_features=64, bias=True)
        (1): LeakyReLU(negative_slope=0.2)
        (2): BatchNorm1d(64, eps=1e-05, momentum=0.1, affine=True, track_running_stats=True)
        (3): Dropout(p=0.2, inplace=False)
      )
    )
    (29): SkipConnectionBlock(
      (skip_block): Sequential(
        (0): Linear(in_features=64, out_features=64, bias=True)
        (1): LeakyReLU(negative_slope=0.2)
        (2): BatchNorm1d(64, eps=1e-05, momentum=0.1, affine=True, track_running_stats=True)
        (3): Dropout(p=0.2, inplace=False)
      )
    )
    (30): SkipConnectionBlock(
      (skip_block): Sequential(
        (0): Linear(in_features=64, out_features=64, bias=True)
        (1): LeakyReLU(negative_slope=0.2)
        (2): BatchNorm1d(64, eps=1e-05, momentum=0.1, affine=True, track_running_stats=True)
        (3): Dropout(p=0.2, inplace=False)
      )
    )
    (31): SkipConnectionBlock(
      (skip_block): Sequential(
        (0): Linear(in_features=64, out_features=64, bias=True)
        (1): LeakyReLU(negative_slope=0.2)
        (2): BatchNorm1d(64, eps=1e-05, momentum=0.1, affine=True, track_running_stats=True)
        (3): Dropout(p=0.2, inplace=False)
      )
    )
    (32): SkipConnectionBlock(
      (skip_block): Sequential(
        (0): Linear(in_features=64, out_features=64, bias=True)
        (1): LeakyReLU(negative_slope=0.2)
        (2): BatchNorm1d(64, eps=1e-05, momentum=0.1, affine=True, track_running_stats=True)
        (3): Dropout(p=0.2, inplace=False)
      )
    )
    (33): SkipConnectionBlock(
      (skip_block): Sequential(
        (0): Linear(in_features=64, out_features=64, bias=True)
        (1): LeakyReLU(negative_slope=0.2)
        (2): BatchNorm1d(64, eps=1e-05, momentum=0.1, affine=True, track_running_stats=True)
        (3): Dropout(p=0.2, inplace=False)
      )
    )
    (34): SkipConnectionBlock(
      (skip_block): Sequential(
        (0): Linear(in_features=64, out_features=64, bias=True)
        (1): LeakyReLU(negative_slope=0.2)
        (2): BatchNorm1d(64, eps=1e-05, momentum=0.1, affine=True, track_running_stats=True)
        (3): Dropout(p=0.2, inplace=False)
      )
    )
    (35): SkipConnectionBlock(
      (skip_block): Sequential(
        (0): Linear(in_features=64, out_features=64, bias=True)
        (1): LeakyReLU(negative_slope=0.2)
        (2): BatchNorm1d(64, eps=1e-05, momentum=0.1, affine=True, track_running_stats=True)
        (3): Dropout(p=0.2, inplace=False)
      )
    )
    (36): SkipConnectionBlock(
      (skip_block): Sequential(
        (0): Linear(in_features=64, out_features=64, bias=True)
        (1): LeakyReLU(negative_slope=0.2)
        (2): BatchNorm1d(64, eps=1e-05, momentum=0.1, affine=True, track_running_stats=True)
        (3): Dropout(p=0.2, inplace=False)
      )
    )
    (37): SkipConnectionBlock(
      (skip_block): Sequential(
        (0): Linear(in_features=64, out_features=64, bias=True)
        (1): LeakyReLU(negative_slope=0.2)
        (2): BatchNorm1d(64, eps=1e-05, momentum=0.1, affine=True, track_running_stats=True)
        (3): Dropout(p=0.2, inplace=False)
      )
    )
    (38): SkipConnectionBlock(
      (skip_block): Sequential(
        (0): Linear(in_features=64, out_features=64, bias=True)
        (1): LeakyReLU(negative_slope=0.2)
        (2): BatchNorm1d(64, eps=1e-05, momentum=0.1, affine=True, track_running_stats=True)
        (3): Dropout(p=0.2, inplace=False)
      )
    )
    (39): SkipConnectionBlock(
      (skip_block): Sequential(
        (0): Linear(in_features=64, out_features=64, bias=True)
        (1): LeakyReLU(negative_slope=0.2)
        (2): BatchNorm1d(64, eps=1e-05, momentum=0.1, affine=True, track_running_stats=True)
        (3): Dropout(p=0.2, inplace=False)
      )
    )
    (40): SkipConnectionBlock(
      (skip_block): Sequential(
        (0): Linear(in_features=64, out_features=64, bias=True)
        (1): LeakyReLU(negative_slope=0.2)
        (2): BatchNorm1d(64, eps=1e-05, momentum=0.1, affine=True, track_running_stats=True)
        (3): Dropout(p=0.2, inplace=False)
      )
    )
    (41): SkipConnectionBlock(
      (skip_block): Sequential(
        (0): Linear(in_features=64, out_features=64, bias=True)
        (1): LeakyReLU(negative_slope=0.2)
        (2): BatchNorm1d(64, eps=1e-05, momentum=0.1, affine=True, track_running_stats=True)
        (3): Dropout(p=0.2, inplace=False)
      )
    )
    (42): SkipConnectionBlock(
      (skip_block): Sequential(
        (0): Linear(in_features=64, out_features=64, bias=True)
        (1): LeakyReLU(negative_slope=0.2)
        (2): BatchNorm1d(64, eps=1e-05, momentum=0.1, affine=True, track_running_stats=True)
        (3): Dropout(p=0.2, inplace=False)
      )
    )
    (43): SkipConnectionBlock(
      (skip_block): Sequential(
        (0): Linear(in_features=64, out_features=64, bias=True)
        (1): LeakyReLU(negative_slope=0.2)
        (2): BatchNorm1d(64, eps=1e-05, momentum=0.1, affine=True, track_running_stats=True)
        (3): Dropout(p=0.2, inplace=False)
      )
    )
    (44): SkipConnectionBlock(
      (skip_block): Sequential(
        (0): Linear(in_features=64, out_features=64, bias=True)
        (1): LeakyReLU(negative_slope=0.2)
        (2): BatchNorm1d(64, eps=1e-05, momentum=0.1, affine=True, track_running_stats=True)
        (3): Dropout(p=0.2, inplace=False)
      )
    )
    (45): SkipConnectionBlock(
      (skip_block): Sequential(
        (0): Linear(in_features=64, out_features=64, bias=True)
        (1): LeakyReLU(negative_slope=0.2)
        (2): BatchNorm1d(64, eps=1e-05, momentum=0.1, affine=True, track_running_stats=True)
        (3): Dropout(p=0.2, inplace=False)
      )
    )
    (46): SkipConnectionBlock(
      (skip_block): Sequential(
        (0): Linear(in_features=64, out_features=64, bias=True)
        (1): LeakyReLU(negative_slope=0.2)
        (2): BatchNorm1d(64, eps=1e-05, momentum=0.1, affine=True, track_running_stats=True)
        (3): Dropout(p=0.2, inplace=False)
      )
    )
    (47): SkipConnectionBlock(
      (skip_block): Sequential(
        (0): Linear(in_features=64, out_features=64, bias=True)
        (1): LeakyReLU(negative_slope=0.2)
        (2): BatchNorm1d(64, eps=1e-05, momentum=0.1, affine=True, track_running_stats=True)
        (3): Dropout(p=0.2, inplace=False)
      )
    )
    (48): SkipConnectionBlock(
      (skip_block): Sequential(
        (0): Linear(in_features=64, out_features=64, bias=True)
        (1): LeakyReLU(negative_slope=0.2)
        (2): BatchNorm1d(64, eps=1e-05, momentum=0.1, affine=True, track_running_stats=True)
        (3): Dropout(p=0.2, inplace=False)
      )
    )
    (49): SkipConnectionBlock(
      (skip_block): Sequential(
        (0): Linear(in_features=64, out_features=64, bias=True)
        (1): LeakyReLU(negative_slope=0.2)
        (2): BatchNorm1d(64, eps=1e-05, momentum=0.1, affine=True, track_running_stats=True)
        (3): Dropout(p=0.2, inplace=False)
      )
    )
    (50): SkipConnectionBlock(
      (skip_block): Sequential(
        (0): Linear(in_features=64, out_features=64, bias=True)
        (1): LeakyReLU(negative_slope=0.2)
        (2): BatchNorm1d(64, eps=1e-05, momentum=0.1, affine=True, track_running_stats=True)
        (3): Dropout(p=0.2, inplace=False)
      )
    )
    (51): SkipConnectionBlock(
      (skip_block): Sequential(
        (0): Linear(in_features=64, out_features=64, bias=True)
        (1): LeakyReLU(negative_slope=0.2)
        (2): BatchNorm1d(64, eps=1e-05, momentum=0.1, affine=True, track_running_stats=True)
        (3): Dropout(p=0.2, inplace=False)
      )
    )
    (52): SkipConnectionBlock(
      (skip_block): Sequential(
        (0): Linear(in_features=64, out_features=64, bias=True)
        (1): LeakyReLU(negative_slope=0.2)
        (2): BatchNorm1d(64, eps=1e-05, momentum=0.1, affine=True, track_running_stats=True)
        (3): Dropout(p=0.2, inplace=False)
      )
    )
    (53): SkipConnectionBlock(
      (skip_block): Sequential(
        (0): Linear(in_features=64, out_features=64, bias=True)
        (1): LeakyReLU(negative_slope=0.2)
        (2): BatchNorm1d(64, eps=1e-05, momentum=0.1, affine=True, track_running_stats=True)
        (3): Dropout(p=0.2, inplace=False)
      )
    )
    (54): SkipConnectionBlock(
      (skip_block): Sequential(
        (0): Linear(in_features=64, out_features=64, bias=True)
        (1): LeakyReLU(negative_slope=0.2)
        (2): BatchNorm1d(64, eps=1e-05, momentum=0.1, affine=True, track_running_stats=True)
        (3): Dropout(p=0.2, inplace=False)
      )
    )
    (55): SkipConnectionBlock(
      (skip_block): Sequential(
        (0): Linear(in_features=64, out_features=64, bias=True)
        (1): LeakyReLU(negative_slope=0.2)
        (2): BatchNorm1d(64, eps=1e-05, momentum=0.1, affine=True, track_running_stats=True)
        (3): Dropout(p=0.2, inplace=False)
      )
    )
    (56): SkipConnectionBlock(
      (skip_block): Sequential(
        (0): Linear(in_features=64, out_features=64, bias=True)
        (1): LeakyReLU(negative_slope=0.2)
        (2): BatchNorm1d(64, eps=1e-05, momentum=0.1, affine=True, track_running_stats=True)
        (3): Dropout(p=0.2, inplace=False)
      )
    )
    (57): SkipConnectionBlock(
      (skip_block): Sequential(
        (0): Linear(in_features=64, out_features=64, bias=True)
        (1): LeakyReLU(negative_slope=0.2)
        (2): BatchNorm1d(64, eps=1e-05, momentum=0.1, affine=True, track_running_stats=True)
        (3): Dropout(p=0.2, inplace=False)
      )
    )
    (58): SkipConnectionBlock(
      (skip_block): Sequential(
        (0): Linear(in_features=64, out_features=64, bias=True)
        (1): LeakyReLU(negative_slope=0.2)
        (2): BatchNorm1d(64, eps=1e-05, momentum=0.1, affine=True, track_running_stats=True)
        (3): Dropout(p=0.2, inplace=False)
      )
    )
    (59): SkipConnectionBlock(
      (skip_block): Sequential(
        (0): Linear(in_features=64, out_features=64, bias=True)
        (1): LeakyReLU(negative_slope=0.2)
        (2): BatchNorm1d(64, eps=1e-05, momentum=0.1, affine=True, track_running_stats=True)
        (3): Dropout(p=0.2, inplace=False)
      )
    )
    (60): SkipConnectionBlock(
      (skip_block): Sequential(
        (0): Linear(in_features=64, out_features=64, bias=True)
        (1): LeakyReLU(negative_slope=0.2)
        (2): BatchNorm1d(64, eps=1e-05, momentum=0.1, affine=True, track_running_stats=True)
        (3): Dropout(p=0.2, inplace=False)
      )
    )
    (61): SkipConnectionBlock(
      (skip_block): Sequential(
        (0): Linear(in_features=64, out_features=64, bias=True)
        (1): LeakyReLU(negative_slope=0.2)
        (2): BatchNorm1d(64, eps=1e-05, momentum=0.1, affine=True, track_running_stats=True)
        (3): Dropout(p=0.2, inplace=False)
      )
    )
    (62): SkipConnectionBlock(
      (skip_block): Sequential(
        (0): Linear(in_features=64, out_features=64, bias=True)
        (1): LeakyReLU(negative_slope=0.2)
        (2): BatchNorm1d(64, eps=1e-05, momentum=0.1, affine=True, track_running_stats=True)
        (3): Dropout(p=0.2, inplace=False)
      )
    )
    (63): SkipConnectionBlock(
      (skip_block): Sequential(
        (0): Linear(in_features=64, out_features=64, bias=True)
        (1): LeakyReLU(negative_slope=0.2)
        (2): BatchNorm1d(64, eps=1e-05, momentum=0.1, affine=True, track_running_stats=True)
        (3): Dropout(p=0.2, inplace=False)
      )
    )
    (64): SkipConnectionBlock(
      (skip_block): Sequential(
        (0): Linear(in_features=64, out_features=64, bias=True)
        (1): LeakyReLU(negative_slope=0.2)
        (2): BatchNorm1d(64, eps=1e-05, momentum=0.1, affine=True, track_running_stats=True)
        (3): Dropout(p=0.2, inplace=False)
      )
    )
    (65): SkipConnectionBlock(
      (skip_block): Sequential(
        (0): Linear(in_features=64, out_features=64, bias=True)
        (1): LeakyReLU(negative_slope=0.2)
        (2): BatchNorm1d(64, eps=1e-05, momentum=0.1, affine=True, track_running_stats=True)
        (3): Dropout(p=0.2, inplace=False)
      )
    )
    (66): SkipConnectionBlock(
      (skip_block): Sequential(
        (0): Linear(in_features=64, out_features=64, bias=True)
        (1): LeakyReLU(negative_slope=0.2)
        (2): BatchNorm1d(64, eps=1e-05, momentum=0.1, affine=True, track_running_stats=True)
        (3): Dropout(p=0.2, inplace=False)
      )
    )
    (67): SkipConnectionBlock(
      (skip_block): Sequential(
        (0): Linear(in_features=64, out_features=64, bias=True)
        (1): LeakyReLU(negative_slope=0.2)
        (2): BatchNorm1d(64, eps=1e-05, momentum=0.1, affine=True, track_running_stats=True)
        (3): Dropout(p=0.2, inplace=False)
      )
    )
    (68): SkipConnectionBlock(
      (skip_block): Sequential(
        (0): Linear(in_features=64, out_features=64, bias=True)
        (1): LeakyReLU(negative_slope=0.2)
        (2): BatchNorm1d(64, eps=1e-05, momentum=0.1, affine=True, track_running_stats=True)
        (3): Dropout(p=0.2, inplace=False)
      )
    )
    (69): SkipConnectionBlock(
      (skip_block): Sequential(
        (0): Linear(in_features=64, out_features=64, bias=True)
        (1): LeakyReLU(negative_slope=0.2)
        (2): BatchNorm1d(64, eps=1e-05, momentum=0.1, affine=True, track_running_stats=True)
        (3): Dropout(p=0.2, inplace=False)
      )
    )
    (70): SkipConnectionBlock(
      (skip_block): Sequential(
        (0): Linear(in_features=64, out_features=64, bias=True)
        (1): LeakyReLU(negative_slope=0.2)
        (2): BatchNorm1d(64, eps=1e-05, momentum=0.1, affine=True, track_running_stats=True)
        (3): Dropout(p=0.2, inplace=False)
      )
    )
    (71): SkipConnectionBlock(
      (skip_block): Sequential(
        (0): Linear(in_features=64, out_features=64, bias=True)
        (1): LeakyReLU(negative_slope=0.2)
        (2): BatchNorm1d(64, eps=1e-05, momentum=0.1, affine=True, track_running_stats=True)
        (3): Dropout(p=0.2, inplace=False)
      )
    )
    (72): SkipConnectionBlock(
      (skip_block): Sequential(
        (0): Linear(in_features=64, out_features=64, bias=True)
        (1): LeakyReLU(negative_slope=0.2)
        (2): BatchNorm1d(64, eps=1e-05, momentum=0.1, affine=True, track_running_stats=True)
        (3): Dropout(p=0.2, inplace=False)
      )
    )
    (73): SkipConnectionBlock(
      (skip_block): Sequential(
        (0): Linear(in_features=64, out_features=64, bias=True)
        (1): LeakyReLU(negative_slope=0.2)
        (2): BatchNorm1d(64, eps=1e-05, momentum=0.1, affine=True, track_running_stats=True)
        (3): Dropout(p=0.2, inplace=False)
      )
    )
    (74): SkipConnectionBlock(
      (skip_block): Sequential(
        (0): Linear(in_features=64, out_features=64, bias=True)
        (1): LeakyReLU(negative_slope=0.2)
        (2): BatchNorm1d(64, eps=1e-05, momentum=0.1, affine=True, track_running_stats=True)
        (3): Dropout(p=0.2, inplace=False)
      )
    )
    (75): SkipConnectionBlock(
      (skip_block): Sequential(
        (0): Linear(in_features=64, out_features=64, bias=True)
        (1): LeakyReLU(negative_slope=0.2)
        (2): BatchNorm1d(64, eps=1e-05, momentum=0.1, affine=True, track_running_stats=True)
        (3): Dropout(p=0.2, inplace=False)
      )
    )
    (76): SkipConnectionBlock(
      (skip_block): Sequential(
        (0): Linear(in_features=64, out_features=64, bias=True)
        (1): LeakyReLU(negative_slope=0.2)
        (2): BatchNorm1d(64, eps=1e-05, momentum=0.1, affine=True, track_running_stats=True)
        (3): Dropout(p=0.2, inplace=False)
      )
    )
    (77): SkipConnectionBlock(
      (skip_block): Sequential(
        (0): Linear(in_features=64, out_features=64, bias=True)
        (1): LeakyReLU(negative_slope=0.2)
        (2): BatchNorm1d(64, eps=1e-05, momentum=0.1, affine=True, track_running_stats=True)
        (3): Dropout(p=0.2, inplace=False)
      )
    )
    (78): SkipConnectionBlock(
      (skip_block): Sequential(
        (0): Linear(in_features=64, out_features=64, bias=True)
        (1): LeakyReLU(negative_slope=0.2)
        (2): BatchNorm1d(64, eps=1e-05, momentum=0.1, affine=True, track_running_stats=True)
        (3): Dropout(p=0.2, inplace=False)
      )
    )
    (79): SkipConnectionBlock(
      (skip_block): Sequential(
        (0): Linear(in_features=64, out_features=64, bias=True)
        (1): LeakyReLU(negative_slope=0.2)
        (2): BatchNorm1d(64, eps=1e-05, momentum=0.1, affine=True, track_running_stats=True)
        (3): Dropout(p=0.2, inplace=False)
      )
    )
    (80): SkipConnectionBlock(
      (skip_block): Sequential(
        (0): Linear(in_features=64, out_features=64, bias=True)
        (1): LeakyReLU(negative_slope=0.2)
        (2): BatchNorm1d(64, eps=1e-05, momentum=0.1, affine=True, track_running_stats=True)
        (3): Dropout(p=0.2, inplace=False)
      )
    )
    (81): SkipConnectionBlock(
      (skip_block): Sequential(
        (0): Linear(in_features=64, out_features=64, bias=True)
        (1): LeakyReLU(negative_slope=0.2)
        (2): BatchNorm1d(64, eps=1e-05, momentum=0.1, affine=True, track_running_stats=True)
        (3): Dropout(p=0.2, inplace=False)
      )
    )
    (82): SkipConnectionBlock(
      (skip_block): Sequential(
        (0): Linear(in_features=64, out_features=64, bias=True)
        (1): LeakyReLU(negative_slope=0.2)
        (2): BatchNorm1d(64, eps=1e-05, momentum=0.1, affine=True, track_running_stats=True)
        (3): Dropout(p=0.2, inplace=False)
      )
    )
    (83): SkipConnectionBlock(
      (skip_block): Sequential(
        (0): Linear(in_features=64, out_features=64, bias=True)
        (1): LeakyReLU(negative_slope=0.2)
        (2): BatchNorm1d(64, eps=1e-05, momentum=0.1, affine=True, track_running_stats=True)
        (3): Dropout(p=0.2, inplace=False)
      )
    )
    (84): SkipConnectionBlock(
      (skip_block): Sequential(
        (0): Linear(in_features=64, out_features=64, bias=True)
        (1): LeakyReLU(negative_slope=0.2)
        (2): BatchNorm1d(64, eps=1e-05, momentum=0.1, affine=True, track_running_stats=True)
        (3): Dropout(p=0.2, inplace=False)
      )
    )
    (85): SkipConnectionBlock(
      (skip_block): Sequential(
        (0): Linear(in_features=64, out_features=64, bias=True)
        (1): LeakyReLU(negative_slope=0.2)
        (2): BatchNorm1d(64, eps=1e-05, momentum=0.1, affine=True, track_running_stats=True)
        (3): Dropout(p=0.2, inplace=False)
      )
    )
    (86): SkipConnectionBlock(
      (skip_block): Sequential(
        (0): Linear(in_features=64, out_features=64, bias=True)
        (1): LeakyReLU(negative_slope=0.2)
        (2): BatchNorm1d(64, eps=1e-05, momentum=0.1, affine=True, track_running_stats=True)
        (3): Dropout(p=0.2, inplace=False)
      )
    )
    (87): SkipConnectionBlock(
      (skip_block): Sequential(
        (0): Linear(in_features=64, out_features=64, bias=True)
        (1): LeakyReLU(negative_slope=0.2)
        (2): BatchNorm1d(64, eps=1e-05, momentum=0.1, affine=True, track_running_stats=True)
        (3): Dropout(p=0.2, inplace=False)
      )
    )
    (88): SkipConnectionBlock(
      (skip_block): Sequential(
        (0): Linear(in_features=64, out_features=64, bias=True)
        (1): LeakyReLU(negative_slope=0.2)
        (2): BatchNorm1d(64, eps=1e-05, momentum=0.1, affine=True, track_running_stats=True)
        (3): Dropout(p=0.2, inplace=False)
      )
    )
    (89): SkipConnectionBlock(
      (skip_block): Sequential(
        (0): Linear(in_features=64, out_features=64, bias=True)
        (1): LeakyReLU(negative_slope=0.2)
        (2): BatchNorm1d(64, eps=1e-05, momentum=0.1, affine=True, track_running_stats=True)
        (3): Dropout(p=0.2, inplace=False)
      )
    )
    (90): SkipConnectionBlock(
      (skip_block): Sequential(
        (0): Linear(in_features=64, out_features=64, bias=True)
        (1): LeakyReLU(negative_slope=0.2)
        (2): BatchNorm1d(64, eps=1e-05, momentum=0.1, affine=True, track_running_stats=True)
        (3): Dropout(p=0.2, inplace=False)
      )
    )
    (91): SkipConnectionBlock(
      (skip_block): Sequential(
        (0): Linear(in_features=64, out_features=64, bias=True)
        (1): LeakyReLU(negative_slope=0.2)
        (2): BatchNorm1d(64, eps=1e-05, momentum=0.1, affine=True, track_running_stats=True)
        (3): Dropout(p=0.2, inplace=False)
      )
    )
    (92): SkipConnectionBlock(
      (skip_block): Sequential(
        (0): Linear(in_features=64, out_features=64, bias=True)
        (1): LeakyReLU(negative_slope=0.2)
        (2): BatchNorm1d(64, eps=1e-05, momentum=0.1, affine=True, track_running_stats=True)
        (3): Dropout(p=0.2, inplace=False)
      )
    )
    (93): SkipConnectionBlock(
      (skip_block): Sequential(
        (0): Linear(in_features=64, out_features=64, bias=True)
        (1): LeakyReLU(negative_slope=0.2)
        (2): BatchNorm1d(64, eps=1e-05, momentum=0.1, affine=True, track_running_stats=True)
        (3): Dropout(p=0.2, inplace=False)
      )
    )
    (94): SkipConnectionBlock(
      (skip_block): Sequential(
        (0): Linear(in_features=64, out_features=64, bias=True)
        (1): LeakyReLU(negative_slope=0.2)
        (2): BatchNorm1d(64, eps=1e-05, momentum=0.1, affine=True, track_running_stats=True)
        (3): Dropout(p=0.2, inplace=False)
      )
    )
    (95): SkipConnectionBlock(
      (skip_block): Sequential(
        (0): Linear(in_features=64, out_features=64, bias=True)
        (1): LeakyReLU(negative_slope=0.2)
        (2): BatchNorm1d(64, eps=1e-05, momentum=0.1, affine=True, track_running_stats=True)
        (3): Dropout(p=0.2, inplace=False)
      )
    )
    (96): SkipConnectionBlock(
      (skip_block): Sequential(
        (0): Linear(in_features=64, out_features=64, bias=True)
        (1): LeakyReLU(negative_slope=0.2)
        (2): BatchNorm1d(64, eps=1e-05, momentum=0.1, affine=True, track_running_stats=True)
        (3): Dropout(p=0.2, inplace=False)
      )
    )
    (97): SkipConnectionBlock(
      (skip_block): Sequential(
        (0): Linear(in_features=64, out_features=64, bias=True)
        (1): LeakyReLU(negative_slope=0.2)
        (2): BatchNorm1d(64, eps=1e-05, momentum=0.1, affine=True, track_running_stats=True)
        (3): Dropout(p=0.2, inplace=False)
      )
    )
    (98): SkipConnectionBlock(
      (skip_block): Sequential(
        (0): Linear(in_features=64, out_features=64, bias=True)
        (1): LeakyReLU(negative_slope=0.2)
        (2): BatchNorm1d(64, eps=1e-05, momentum=0.1, affine=True, track_running_stats=True)
        (3): Dropout(p=0.2, inplace=False)
      )
    )
    (99): SkipConnectionBlock(
      (skip_block): Sequential(
        (0): Linear(in_features=64, out_features=64, bias=True)
        (1): LeakyReLU(negative_slope=0.2)
        (2): BatchNorm1d(64, eps=1e-05, momentum=0.1, affine=True, track_running_stats=True)
        (3): Dropout(p=0.2, inplace=False)
      )
    )
    (100): SkipConnectionBlock(
      (skip_block): Sequential(
        (0): Linear(in_features=64, out_features=64, bias=True)
        (1): LeakyReLU(negative_slope=0.2)
        (2): BatchNorm1d(64, eps=1e-05, momentum=0.1, affine=True, track_running_stats=True)
        (3): Dropout(p=0.2, inplace=False)
      )
    )
    (101): SkipConnectionBlock(
      (skip_block): Sequential(
        (0): Linear(in_features=64, out_features=64, bias=True)
        (1): LeakyReLU(negative_slope=0.2)
        (2): BatchNorm1d(64, eps=1e-05, momentum=0.1, affine=True, track_running_stats=True)
        (3): Dropout(p=0.2, inplace=False)
      )
    )
    (102): SkipConnectionBlock(
      (skip_block): Sequential(
        (0): Linear(in_features=64, out_features=64, bias=True)
        (1): LeakyReLU(negative_slope=0.2)
        (2): BatchNorm1d(64, eps=1e-05, momentum=0.1, affine=True, track_running_stats=True)
        (3): Dropout(p=0.2, inplace=False)
      )
    )
    (103): SkipConnectionBlock(
      (skip_block): Sequential(
        (0): Linear(in_features=64, out_features=64, bias=True)
        (1): LeakyReLU(negative_slope=0.2)
        (2): BatchNorm1d(64, eps=1e-05, momentum=0.1, affine=True, track_running_stats=True)
        (3): Dropout(p=0.2, inplace=False)
      )
    )
    (104): Linear(in_features=64, out_features=1, bias=True)
  )
)
Epoch=1, loss=3.133668, r2=-2.144990
Epoch=2, loss=2.090811, r2=-1.090597
Epoch=3, loss=1.856917, r2=-0.838755
Epoch=4, loss=1.652711, r2=-0.635747
Epoch=5, loss=1.611523, r2=-0.562242
Epoch=6, loss=1.328773, r2=-0.298638
Epoch=7, loss=1.319097, r2=-0.310683
Epoch=8, loss=1.212817, r2=-0.204490
Epoch=9, loss=1.187081, r2=-0.145294
Epoch=10, loss=1.029929, r2=-0.015018
…
