2022-05-27 19:01:27
Loading dataset...
Loading model...
MLP2(
  (title_embedding): Embedding(63, 32)
  (loss_fn): MSELoss()
  (model): Sequential(
    (0): Linear(in_features=36, out_features=64, bias=True)
    (1): LeakyReLU(negative_slope=0.2)
    (2): BatchNorm1d(64, eps=1e-05, momentum=0.1, affine=True, track_running_stats=True)
    (3): Dropout(p=0.2, inplace=False)
    (4): SkipConnectionBlock(
      (skip_block): Sequential(
        (0): Linear(in_features=64, out_features=64, bias=True)
        (1): LeakyReLU(negative_slope=0.2)
        (2): BatchNorm1d(64, eps=1e-05, momentum=0.1, affine=True, track_running_stats=True)
        (3): Dropout(p=0.2, inplace=False)
      )
    )
    (5): SkipConnectionBlock(
      (skip_block): Sequential(
        (0): Linear(in_features=64, out_features=64, bias=True)
        (1): LeakyReLU(negative_slope=0.2)
        (2): BatchNorm1d(64, eps=1e-05, momentum=0.1, affine=True, track_running_stats=True)
        (3): Dropout(p=0.2, inplace=False)
      )
    )
    (6): SkipConnectionBlock(
      (skip_block): Sequential(
        (0): Linear(in_features=64, out_features=64, bias=True)
        (1): LeakyReLU(negative_slope=0.2)
        (2): BatchNorm1d(64, eps=1e-05, momentum=0.1, affine=True, track_running_stats=True)
        (3): Dropout(p=0.2, inplace=False)
      )
    )
    (7): SkipConnectionBlock(
      (skip_block): Sequential(
        (0): Linear(in_features=64, out_features=64, bias=True)
        (1): LeakyReLU(negative_slope=0.2)
        (2): BatchNorm1d(64, eps=1e-05, momentum=0.1, affine=True, track_running_stats=True)
        (3): Dropout(p=0.2, inplace=False)
      )
    )
    (8): SkipConnectionBlock(
      (skip_block): Sequential(
        (0): Linear(in_features=64, out_features=64, bias=True)
        (1): LeakyReLU(negative_slope=0.2)
        (2): BatchNorm1d(64, eps=1e-05, momentum=0.1, affine=True, track_running_stats=True)
        (3): Dropout(p=0.2, inplace=False)
      )
    )
    (9): SkipConnectionBlock(
      (skip_block): Sequential(
        (0): Linear(in_features=64, out_features=64, bias=True)
        (1): LeakyReLU(negative_slope=0.2)
        (2): BatchNorm1d(64, eps=1e-05, momentum=0.1, affine=True, track_running_stats=True)
        (3): Dropout(p=0.2, inplace=False)
      )
    )
    (10): SkipConnectionBlock(
      (skip_block): Sequential(
        (0): Linear(in_features=64, out_features=64, bias=True)
        (1): LeakyReLU(negative_slope=0.2)
        (2): BatchNorm1d(64, eps=1e-05, momentum=0.1, affine=True, track_running_stats=True)
        (3): Dropout(p=0.2, inplace=False)
      )
    )
    (11): SkipConnectionBlock(
      (skip_block): Sequential(
        (0): Linear(in_features=64, out_features=64, bias=True)
        (1): LeakyReLU(negative_slope=0.2)
        (2): BatchNorm1d(64, eps=1e-05, momentum=0.1, affine=True, track_running_stats=True)
        (3): Dropout(p=0.2, inplace=False)
      )
    )
    (12): Linear(in_features=64, out_features=1, bias=True)
  )
)
Epoch=1, loss=0.797627, r2=0.224506
Epoch=2, loss=0.704243, r2=0.325659
Epoch=3, loss=0.649513, r2=0.388092
Epoch=4, loss=0.619068, r2=0.419357
Epoch=5, loss=0.590394, r2=0.438664
Epoch=6, loss=0.556142, r2=0.478600
Epoch=7, loss=0.571834, r2=0.465809
Epoch=8, loss=0.505291, r2=0.520747
Epoch=9, loss=0.546168, r2=0.492715
Epoch=10, loss=0.487793, r2=0.544957
…
